model_save/kan_vae_mnist2d.pth (torch, 934506 bytes, 35 tensors)

encoder.0.layers.0.kan_layer.base_weight f4 [1, 8, 9]
0	0xbe029acb	-0.12754361
1	0xbd881cf1	-0.06646145
2	0xbe053497	-0.13008343
3	0xbe2e07c4	-0.1699515
4	0xbd3ec591	-0.046575133
5	0xbe4a0d1d	-0.19731565
6	0xbe2959e0	-0.16538191
7	0xbdb91ca8	-0.09038669
8	0xbe3da5b8	-0.18520248
9	0xbe02bd80	-0.12767601
10	0x3afb70cf	0.00191834
11	0x3d82142c	0.06351504
12	0x3d9b503b	0.07583662
13	0x3e32c900	0.17459488
14	0x3d2b1283	0.0417657
15	0x3da2aa51	0.079426415
16	0x3d188425	0.037235398
17	0xbd7ac2a0	-0.061220765
18	0x3de549b1	0.11195696
19	0x3d942bc5	0.07234911
20	0x3dc52c26	0.09627561
21	0x3cd80ffb	0.026374808
22	0xbc8986f4	-0.016787983
23	0x3c95c306	0.018281471
24	0x3d1c936c	0.03822653
25	0xbd439181	-0.047746185
26	0x3e04b26c	0.12958688
27	0x3d73154d	0.059346486
28	0x3df72459	0.1206748
29	0x3dac26da	0.08405848
30	0x3d33e8d5	0.043923218
31	0x3cb8f94d	0.022579813
32	0x3cde7eec	0.02716013
33	0xbe09ce71	-0.13457657
34	0xbe050996	-0.12991938
35	0xbdc61ae3	-0.09673097
36	0xbd41630c	-0.0472136
37	0x3cefee6a	0.02928849
38	0x3d1dfb4c	0.038569734
39	0xbd2fdf4d	-0.042937566
40	0x3e524330	0.20533442
41	0x3e021606	0.12703714
42	0xbdc0136b	-0.09378704
43	0x3daa93c5	0.08328966
44	0x3c7bcd53	0.015368777
45	0xbe247995	-0.16062005
46	0xbd764ca3	-0.06013168
47	0x3c22d885	0.009939318
48	0xbdd6e081	-0.104920395
49	0xbe3d1040	-0.1846323
50	0xbd702450	-0.05862838
51	0x3d282025	0.04104628
52	0xbd8d22fb	-0.068914376
53	0x3d92f008	0.071746886
54	0x3cdd414c	0.027008675
55	0x3c447cda	0.011992658
56	0xbdb54808	-0.088516295
57	0x3cb812f6	0.022469979
58	0x3d477e9f	0.04870474
59	0x3c0113ad	0.007878226
60	0x3d4d40d7	0.050110664
61	0x3e07514f	0.1321461
62	0x3d6c6521	0.05771363
63	0x3c9ba98f	0.01900175
64	0x3e09f29e	0.13471457
65	0xbd1d5b9d	-0.038417447
66	0x3dface3e	0.12246369
67	0x3da77372	0.08176316
68	0xbe1c15f3	-0.15242748
69	0x3d48bcd5	0.04900821
70	0xbdab2a0e	-0.08357631
71	0xbd81bf30	-0.06335294

encoder.0.layers.0.kan_layer.spline_weight f4 [1, 8, 9, 8]
0	0xba6be072	-0.00089979835
1	0xbe14b4e4	-0.1452213
2	0xbdadfbd4	-0.08495298
3	0x3de42b89	0.11141116
4	0x3e992031	0.29907373
5	0x3e7f0d24	0.24907357
6	0x3e9b7c5f	0.30368325
7	0x3e5c75c1	0.21529295
8	0xbb45fd85	-0.0030210924
9	0x3d34613c	0.044038042
10	0x3cf6b078	0.030113444
11	0xbd98b3d6	-0.07456176
12	0xbecea57a	-0.40360624
13	0xbeb84eb5	-0.3599755
14	0xbe7ac2ee	-0.24488422
15	0xbdfc7109	-0.12326247
16	0xbb20774a	-0.0024485164
17	0x3dede75a	0.116163924
18	0x3d5093f7	0.05092236
19	0xbdf3937b	-0.11893364
20	0xbf0276f7	-0.50962776
21	0xbe8f321f	-0.27967927
22	0xbeb96b5e	-0.36214727
23	0xbece4745	-0.4028875
24	0xba877419	-0.0010334282
25	0x3cdb2ea1	0.026755633
26	0x3bd6119c	0.006532861
27	0xbca79f75	-0.020461777
28	0xbe906e09	-0.2820895
29	0xbe8b7919	-0.27240828
30	0xbddb0a4b	-0.106953226
31	0xbea9b19e	-0.33143324
32	0x395c5b87	0.00021014932
33	0xbb485678	-0.0030569118
34	0xbc5c636b	-0.0134514375
35	0x3c46a2cf	0.0121237775
36	0x3d957009	0.0729676
37	0x3daef7e4	0.08543375
38	0xbbb65690	-0.0055645183
39	0xbd9ea5fa	-0.07746501
40	0x3b4d1dd3	0.0031298294
41	0xbca53f1c	-0.020171694
42	0xbc1c516d	-0.009540898
43	0x3d3b46d2	0.045721836
44	0x3efd0a0c	0.49421728
45	0x3eb2a44f	0.34890983
46	0x3eafca90	0.3433423
47	0x3ef3dcff	0.47629544
48	0x3b358546	0.0027697845
49	0x3e1616a4	0.14657074
50	0x3d95b000	0.0730896
51	0xbdd58a3c	-0.10426757
52	0xbf05a99d	-0.52211934
53	0xbea27f01	-0.3173752
54	0xbeb64ed9	-0.3560703
55	0xbeaa45d1	-0.3325639
56	0xbb15211b	-0.0022755328
57	0x3cd13cda	0.025541712
58	0xbac987f7	-0.0015375604
59	0xbd5ffe3c	-0.054685816
60	0xbf3502e8	-0.7070756
61	0xbed0246c	-0.40652788
62	0xbe8d0fe0	-0.27551174
63	0xbe57ca7e	-0.21073338
64	0x3ac759ad	0.0015209221
65	0xbdf1ca60	-0.11806178
66	0xbd840ae5	-0.064473905
67	0x3dc6d5da	0.09708758
68	0x3f23e8c4	0.6402705
69	0x3eb14546	0.34623164
70	0x3ed9136e	0.42397636
71	0x3e997cef	0.2997813
72	0x3aa0a23e	0.0012255383
73	0x3afc2be2	0.0019239152
74	0xbce1bd37	-0.027556045
75	0xbcd83ddb	-0.026396682
76	0x3e5a7fab	0.21337764
77	0x3e74c958	0.23904932
78	0x3e2ec51a	0.17067376
79	0x3de5512c	0.11197123
80	0x3bab6648	0.0052306987
81	0x3ce2e395	0.02769641
82	0xbc3e7134	-0.011623669
83	0x3bebdb0d	0.0071977437
84	0xbb9913b5	-0.0046715387
85	0xbcbd768b	-0.023127815
86	0x3c06c43a	0.008225495
87	0x3d4a6d34	0.04942055
88	0x3b89d379	0.0042061177
89	0xbb957510	-0.004561074
90	0xbc9bc25f	-0.019013582
91	0x3ca9371a	0.020656157
92	0xbce10faa	-0.02747329
93	0xbd557867	-0.052116778
94	0x3cb23cf5	0.021757582
95	0x3ce5c229	0.028046684
96	0xbab806ac	-0.0014040074
97	0x3c42321f	0.01185277
98	0x3c9ad96e	0.018902507
99	0x3d0c045a	0.034183837
100	0xbe13602d	-0.14392157
101	0xbe9b1550	-0.30289698
102	0xbe241728	-0.16024458
103	0xbdcdab07	-0.100423865
104	0x3af7ce0b	0.001890601
105	0xbd1ceec0	-0.038313627
106	0xbd97c38c	-0.074103445
107	0xbde15836	-0.11003153
108	0xbde479c2	-0.11156036
109	0x3dbaf462	0.091286436
110	0x3e05d442	0.13069251
111	0x3e86597e	0.26240152
112	0xb9653ddd	-0.00021862188
113	0x3beff787	0.0073232087
114	0x3c34279a	0.01099577
115	0xbc4c95d1	-0.012486891
116	0xbd103b2c	-0.03521268
117	0x3cb982e4	0.022645421
118	0xbccfd9be	-0.025372382
119	0x3dc19007	0.09451299
120	0xbb86c4d9	-0.0041128215
121	0x3cd189fe	0.025578495
122	0x3cade104	0.02122546
123	0xbcd95fb5	-0.026534894
124	0x3c3452a9	0.011006036
125	0x3d809118	0.062776744
126	0xbd2ffca5	-0.04296555
127	0xbd3f233b	-0.046664458
128	0x3b0dadef	0.0021618565
129	0xbc749937	-0.014929107
130	0xbc330f07	-0.010928876
131	0x3bae1151	0.005312123
132	0xbe333015	-0.1749881
133	0xbd4138c2	-0.04717327
134	0xbd5f810b	-0.054566424
135	0x3ddc3923	0.107530855
136	0xbb7b3be8	-0.0038335267
137	0xbd606384	-0.054782405
138	0xbcf4e6e7	-0.029895259
139	0x3ad39bcb	0.0016144452
140	0x3ed11e4c	0.40843427
141	0x3dce3009	0.10067756
142	0x3e39474d	0.18093605
143	0x3dad9a59	0.08476705
144	0x38e494e5	0.00010899621
145	0x3e3d39b6	0.18479046
146	0x3de0ac7a	0.10970397
147	0xbddbcaab	-0.10732015
148	0xbe9a78d3	-0.30170307
149	0xbe6022ac	-0.21888226
150	0xbe21fa7b	-0.15818207
151	0xbde23187	-0.11044603
152	0x3b2c9fd9	0.0026340394
153	0xbdb6c65c	-0.08924553
154	0xbd4ace53	-0.049513172
155	0x3d76869a	0.06018696
156	0x3ec07d72	0.37595707
157	0x3e4969bf	0.19669245
158	0x3d4988dc	0.049202785
159	0x3e9a15d5	0.30094782
160	0xbb0eabbc	-0.0021769842
161	0x3dfacade	0.12245725
162	0x3d919067	0.07107621
163	0xbdb36546	-0.08759551
164	0xbe9dd169	-0.3082383
165	0xbe828a02	-0.25495917
166	0xbe206405	-0.15663154
167	0xbddc3237	-0.10751765
168	0xbaab7c09	-0.001308323
169	0x3d08968e	0.033346705
170	0x3cbceaa8	0.023061112
171	0xbc9a7ad9	-0.018857406
172	0xbe075059	-0.13214244
173	0xbe7ad682	-0.2449589
174	0xbe20133d	-0.15632339
175	0xbebb29ca	-0.3655532
176	0x3b66dc64	0.0035226578
177	0xbc6c2bf7	-0.014414779
178	0xbd004388	-0.031314403
179	0x3c3a6725	0.011377131
180	0x3eb181b9	0.34669283
181	0x3e3926b9	0.18081178
182	0x3dcffb04	0.10155299
183	0xbd399f29	-0.045317803
184	0xbb208a37	-0.0024496445
185	0xbc8f3473	-0.017481064
186	0xbb1da45d	-0.0024054267
187	0x3b01562a	0.0019735196
188	0x3ddad380	0.10684872
189	0x3c0d5fd3	0.008628803
190	0xbdfd573b	-0.123701535
191	0xbdb4b36e	-0.08823286
192	0xba152f48	-0.00056909444
193	0xbdb58348	-0.088629305
194	0xbd3a88a5	-0.04554047
195	0x3d3664f0	0.044529855
196	0x3e3fe419	0.18739356
197	0x3d5d156e	0.053975515
198	0x3e010603	0.1259995
199	0x3e45bdbf	0.19310664
200	0x3b226219	0.002477771
201	0xbcbfc00e	-0.023407008
202	0xbc3ac628	-0.011399783
203	0x3c22dd13	0.0099404035
204	0x3dc2ac4e	0.09505521
205	0xbc0bc903	-0.008531812
206	0xbca6acf1	-0.020346137
207	0x3e770a09	0.24124922
208	0xbb362359	-0.0027792065
209	0xbdf5adf5	-0.1199607
210	0xbd51cf85	-0.051223297
211	0x3db9a986	0.09065537
212	0x3edf646c	0.43631303
213	0x3e784115	0.24243577
214	0x3e8f7c4a	0.28024513
215	0x3e913a38	0.2836473
216	0x3bad67f0	0.0052919313
217	0xbde64cc9	-0.11245114
218	0xbdb01bf0	-0.08599079
219	0x3d378189	0.04480127
220	0x3dfce52a	0.12348397
221	0x3e08c6a1	0.13357021
222	0x3e20445c	0.15651077
223	0x3e9e599e	0.30927747
224	0x3b0b802e	0.0021286118
225	0x3e09badf	0.13450192
226	0x3d9c4c41	0.07631732
227	0x3d11e04b	0.035614293
228	0xbd865d0e	-0.065607175
229	0xbe37767f	-0.17916296
230	0xbe3a55b1	-0.18196751
231	0xbec9de89	-0.39427593
232	0xbb7451f4	-0.0037280293
233	0xbe47dbf6	-0.19517502
234	0xbdba3e3e	-0.09093903
235	0x3d00a7dc	0.031410083
236	0x3e5d92f8	0.21638095
237	0x3e83bf2a	0.25731784
238	0x3d70fa73	0.058832597
239	0x3e87a17a	0.26490384
240	0xb9fa1137	-0.00047696542
241	0xbb2d5b20	-0.002645202
242	0x3bce476c	0.0062951352
243	0xbccfc04e	-0.025360253
244	0xbd045acd	-0.032313157
245	0x3e447a31	0.19187237
246	0x3e08b848	0.13351548
247	0x3ea327b4	0.3186623
248	0x3b2b9ed0	0.002618719
249	0x3cdc3a55	0.026883284
250	0xbb758fcf	-0.003746975
251	0x3c166e32	0.009181546
252	0xbe08f1b5	-0.13373454
253	0xbd4b8dcc	-0.049695775
254	0x3c97b440	0.018518567
255	0x3df7e14b	0.12103518

encoder.0.layers.0.kan_layer.spline_scaler f4 [1, 8, 9]
0	0xbe7e4b86	-0.24833497
1	0x3e1d3f31	0.15356137
2	0x3ea369bc	0.31916606
3	0x3d19ff94	0.037597254
4	0x3aadec19	0.0013269215
5	0xbe216dbe	-0.1576452
6	0x3eac750e	0.33683056
7	0x3e4abed0	0.19799352
8	0xbe87ca0a	-0.2652133
9	0xbe03a93e	-0.1285753
10	0x3b17f738	0.0023188125
11	0xba1d4084	-0.0005998688
12	0xbda4d964	-0.080492765
13	0x3e0bdfda	0.13659611
14	0xbb387915	-0.0028148342
15	0xbba55c0e	-0.005046374
16	0x3ce57f26	0.02801473
17	0xbe081549	-0.1328937
18	0xbe908feb	-0.282348
19	0x3dfdf7a2	0.12400748
20	0xbe31a3eb	-0.17347686
21	0xbd61e126	-0.05514636
22	0xbd927612	-0.071514264
23	0xbae4de6e	-0.0017461309
24	0x3d28fea7	0.04125848
25	0xbab05a6b	-0.0013454681
26	0x3e76199b	0.24033205
27	0x3e05432d	0.13013907
28	0xbe33edaf	-0.17571138
29	0x3e449099	0.19195785
30	0x3d407587	0.046987083
31	0xbbf47650	-0.007460393
32	0xbb0d88e5	-0.0021596488
33	0x3b8ff3e4	0.0043930877
34	0x3e004521	0.1252637
35	0xbe2ad0ef	-0.16681264
36	0xbe468da3	-0.19389968
37	0x3a5ff7f8	0.0008543725
38	0xbb1c1387	-0.002381535
39	0x3e1e066c	0.15432137
40	0xbe4bb2cf	-0.19892429
41	0x3db2e8d0	0.08735812
42	0xbe86a367	-0.2629654
43	0xbd30d96d	-0.043176103
44	0x3bd9c139	0.0066453484
45	0xbe70b918	-0.23508108
46	0xbc4cc24f	-0.012497499
47	0xbd83a7b0	-0.06428468
48	0x3dd94905	0.106096305
49	0x3b1a6756	0.0023560128
50	0x3d3207f3	0.043464612
51	0x3aa2f643	0.0012433011
52	0xbd8a7eff	-0.06762504
53	0xbe73a490	-0.23793244
54	0xbbb076e3	-0.005385266
55	0x3b959bd4	0.0045656953
56	0x3d925f8c	0.0714713
57	0x3b7023b2	0.003664237
58	0xba9e091e	-0.001205716
59	0xbb1a38ae	-0.002353232
60	0x3d1bf411	0.038074557
61	0xbdf6f986	-0.120593116
62	0xbdd9b859	-0.10630865
63	0xbdf7ab0d	-0.12093172
64	0x3e0844d9	0.13307513
65	0x3c0a1dcf	0.0084299585
66	0x3d9b274d	0.075758554
67	0xb99b3f73	-0.00029611177
68	0x3e180d58	0.1484884
69	0x3d474fc6	0.048660062
70	0xbdc09f41	-0.09405375
71	0xbddfea3d	-0.10933349

encoder.0.layers.0.kan_layer.grid f4 [1, 9, 12]
0	0xc00ccccd	-2.2
1	0xbfe66666	-1.8
2	0xbfb33333	-1.4
3	0xbf800000	-1.0
4	0xbf19999a	-0.6
5	0xbe4ccccc	-0.19999999
6	0x3e4cccd0	0.20000005
7	0x3f19999a	0.6
8	0x3f800000	1.0
9	0x3fb33334	1.4000001
10	0x3fe66666	1.8
11	0x400ccccd	2.2
12	0xc00ccccd	-2.2
13	0xbfe66666	-1.8
14	0xbfb33333	-1.4
15	0xbf800000	-1.0
16	0xbf19999a	-0.6
17	0xbe4ccccc	-0.19999999
18	0x3e4cccd0	0.20000005
19	0x3f19999a	0.6
20	0x3f800000	1.0
21	0x3fb33334	1.4000001
22	0x3fe66666	1.8
23	0x400ccccd	2.2
24	0xc00ccccd	-2.2
25	0xbfe66666	-1.8
26	0xbfb33333	-1.4
27	0xbf800000	-1.0
28	0xbf19999a	-0.6
29	0xbe4ccccc	-0.19999999
30	0x3e4cccd0	0.20000005
31	0x3f19999a	0.6
32	0x3f800000	1.0
33	0x3fb33334	1.4000001
34	0x3fe66666	1.8
35	0x400ccccd	2.2
36	0xc00ccccd	-2.2
37	0xbfe66666	-1.8
38	0xbfb33333	-1.4
39	0xbf800000	-1.0
40	0xbf19999a	-0.6
41	0xbe4ccccc	-0.19999999
42	0x3e4cccd0	0.20000005
43	0x3f19999a	0.6
44	0x3f800000	1.0
45	0x3fb33334	1.4000001
46	0x3fe66666	1.8
47	0x400ccccd	2.2
48	0xc00ccccd	-2.2
49	0xbfe66666	-1.8
50	0xbfb33333	-1.4
51	0xbf800000	-1.0
52	0xbf19999a	-0.6
53	0xbe4ccccc	-0.19999999
54	0x3e4cccd0	0.20000005
55	0x3f19999a	0.6
56	0x3f800000	1.0
57	0x3fb33334	1.4000001
58	0x3fe66666	1.8
59	0x400ccccd	2.2
60	0xc00ccccd	-2.2
61	0xbfe66666	-1.8
62	0xbfb33333	-1.4
63	0xbf800000	-1.0
64	0xbf19999a	-0.6
65	0xbe4ccccc	-0.19999999
66	0x3e4cccd0	0.20000005
67	0x3f19999a	0.6
68	0x3f800000	1.0
69	0x3fb33334	1.4000001
70	0x3fe66666	1.8
71	0x400ccccd	2.2
72	0xc00ccccd	-2.2
73	0xbfe66666	-1.8
74	0xbfb33333	-1.4
75	0xbf800000	-1.0
76	0xbf19999a	-0.6
77	0xbe4ccccc	-0.19999999
78	0x3e4cccd0	0.20000005
79	0x3f19999a	0.6
80	0x3f800000	1.0
81	0x3fb33334	1.4000001
82	0x3fe66666	1.8
83	0x400ccccd	2.2
84	0xc00ccccd	-2.2
85	0xbfe66666	-1.8
86	0xbfb33333	-1.4
87	0xbf800000	-1.0
88	0xbf19999a	-0.6
89	0xbe4ccccc	-0.19999999
90	0x3e4cccd0	0.20000005
91	0x3f19999a	0.6
92	0x3f800000	1.0
93	0x3fb33334	1.4000001
94	0x3fe66666	1.8
95	0x400ccccd	2.2
96	0xc00ccccd	-2.2
97	0xbfe66666	-1.8
98	0xbfb33333	-1.4
99	0xbf800000	-1.0
100	0xbf19999a	-0.6
101	0xbe4ccccc	-0.19999999
102	0x3e4cccd0	0.20000005
103	0x3f19999a	0.6
104	0x3f800000	1.0
105	0x3fb33334	1.4000001
106	0x3fe66666	1.8
107	0x400ccccd	2.2

encoder.0.layers.1.kan_layer.base_weight f4 [1, 16, 72]
0	0x3d82f951	0.063952096
1	0x3d16d498	0.03682384
2	0x3e0cc2b5	0.1374615
3	0x3e050574	0.12990361
4	0x3ddaebf8	0.10689539
5	0x3e1a0058	0.15039194
6	0xbe5b5d81	-0.21422388
7	0xbdfd7eac	-0.12377676
8	0xbd4a0762	-0.049323447
9	0xbd2028d3	-0.039101433
10	0xbe0fbe77	-0.140375
11	0xbdea877e	-0.11451624
12	0xbcf798cf	-0.030224232
13	0xbe065797	-0.1311935
14	0xbd9427a0	-0.0723412
15	0x3daadfd3	0.08343472
16	0x3cefc2bb	0.02926766
17	0xbd5588ae	-0.0521323
18	0x3dcda354	0.10040918
19	0x3d2413fe	0.04005813
20	0x3bf25e51	0.0073964973
21	0x3d0df8f6	0.034661256
22	0x3c3a4522	0.011369022
23	0xbcb49661	-0.022044363
24	0x3dd082a8	0.10181171
25	0xbc7a99b6	-0.015295437
26	0x3d22382b	0.039604347
27	0x3c9556fd	0.018229956
28	0x3ccfdf9d	0.025375182
29	0xbd7aa01d	-0.061187852
30	0xbdbd71c0	-0.09250212
31	0xbd817d4e	-0.06322728
32	0xbdbe22fa	-0.09284015
33	0xbde0107c	-0.10940644
34	0xbcc1bf24	-0.023650713
35	0xbb876ecd	-0.0041330815
36	0xbd5efdd3	-0.054441284
37	0xbe05affe	-0.13055417
38	0xbd2484a3	-0.040165555
39	0xbe291329	-0.16511215
40	0xbe259b36	-0.1617249
41	0xbd9b7be4	-0.0759199
42	0x3c3df878	0.011594884
43	0xbca89187	-0.020577205
44	0xbc43d13c	-0.011951741
45	0xbdb9fe96	-0.090817615
46	0x3db9412e	0.09045635
47	0x3d506c5d	0.050884593
48	0x3e048cfb	0.12944405
49	0x3deb085e	0.11476205
50	0x3e0af4e9	0.13569988
51	0xbda92756	-0.08259456
52	0x3db8dfba	0.090270475
53	0x3dd06492	0.10175432
54	0x3c86d07f	0.01645684
55	0xbd7b1581	-0.061299805
56	0x3ccf7d5f	0.025328336
57	0xbd43a4e8	-0.04776469
58	0xbdb4fe03	-0.088375114
59	0xbd882a7b	-0.066487275
60	0x3e47de24	0.19518334
61	0x3dca6d9d	0.09884188
62	0x3d907bbe	0.07054852
63	0x3da4074f	0.080092065
64	0x3ce971d3	0.028496658
65	0xbd882074	-0.06646815
66	0x3d083a3f	0.033258673
67	0xbd8bbbf2	-0.06822957
68	0xbdd48fbd	-0.103789784
69	0x3cfe2c51	0.031026991
70	0xbcc321e0	-0.023819864
71	0xbd43efbf	-0.04783606
72	0xbe590362	-0.21192697
73	0x3e6325f4	0.22182447
74	0x3d552e6a	0.052046217
75	0xbdf3d482	-0.11905767
76	0x3e70735c	0.23481506
77	0x3be04385	0.0068439865
78	0xbe018ce4	-0.12651402
79	0x3e664b4c	0.22489661
80	0x3e555bf8	0.20835865
81	0x3da7b49b	0.08188745
82	0xbd7a9ede	-0.061186664
83	0x3ced5302	0.028970245
84	0x3da2a8e9	0.07942373
85	0xbde7e92c	-0.11323771
86	0xbc4ed810	-0.0126247555
87	0x3d03ed35	0.03220864
88	0xbe051528	-0.12996352
89	0xbd0a443f	-0.03375649
90	0x3db6e71a	0.08930798
91	0xbd0ace91	-0.033888403
92	0xbbe10a62	-0.006867693
93	0x3db840f4	0.08996764
94	0xbd810106	-0.06299023
95	0x3d39929e	0.04530584
96	0x3d3076be	0.04308199
97	0xbcc7fc75	-0.024412373
98	0xbd5e1786	-0.054221652
99	0x3d1245e9	0.035711203
100	0xbd99c554	-0.075083405
101	0x3cae833b	0.02130281
102	0xbcd5651b	-0.026049187
103	0xbdaa0b3a	-0.083029225
104	0x3d39f01c	0.045395
105	0xbcfc0c38	-0.030767545
106	0x3c5c39c6	0.013441509
107	0x3e0ad57d	0.13558002
108	0x3d070638	0.032964915
109	0xbdba525c	-0.0909774
110	0xbd8a5f40	-0.06756449
111	0x3d69c9b5	0.05707713
112	0xbe204056	-0.15649542
113	0xbd5198fb	-0.051171284
114	0x3c1157cd	0.008871031
115	0xbdb7ed0c	-0.0898076
116	0xbd26fd4d	-0.04076891
117	0xbe1aa7dd	-0.15103097
118	0xbda9c48b	-0.08289441
119	0x3df151e1	0.11783195
120	0xbe0aa3d2	-0.13539055
121	0x3d6475b7	0.055776324
122	0x3d0412a7	0.03224435
123	0xbd72e342	-0.05929876
124	0x3c0647fb	0.008195872
125	0x3d29e826	0.04148116
126	0x3ce55656	0.02799527
127	0xbddd883e	-0.10817002
128	0xbd6db948	-0.058038026
129	0x3cf489b8	0.029850826
130	0xbd9a6d87	-0.07540422
131	0xbcdef05f	-0.027214227
132	0x3da6a447	0.08136802
133	0xbc518934	-0.012789059
134	0xbd8f10ac	-0.06985602
135	0x3e06541c	0.13118023
136	0xbd46f06d	-0.04856913
137	0xbe224d3e	-0.15849778
138	0x3e1a3546	0.15059385
139	0xbd10480b	-0.035224956
140	0xbe12701e	-0.14300582
141	0x3d2a8d44	0.041638628
142	0xbcc8b0a5	-0.024498293
143	0xbd88c50d	-0.066782095
144	0x3e04ea90	0.12980103
145	0x3e3d561e	0.18489882
146	0x3d0404b5	0.03223105
147	0xbdcf60e2	-0.10125901
148	0x3e093dff	0.13402556
149	0x3ddd4166	0.108034894
150	0xbe12faaf	-0.1435344
151	0x3d3ac664	0.045599356
152	0x3d44c0d4	0.048035458
153	0xbe392a57	-0.18082558
154	0xbd8ea265	-0.06964568
155	0xbd93bd81	-0.072138794
156	0xbc9dffe9	-0.019287067
157	0xbdb8b9de	-0.09019826
158	0xbda70581	-0.08155347
159	0xbc1b2eeb	-0.009471635
160	0xbdc59ae2	-0.09648682
161	0xbe4708d8	-0.19436967
162	0xbdabf3b9	-0.08396096
163	0xbe58d140	-0.21173573
164	0x3d2f4a36	0.042795382
165	0xbc59f03c	-0.013301905
166	0xbd6419cf	-0.055688675
167	0xbd93d823	-0.07218959
168	0x3d1df6d3	0.038565468
169	0xbdd44954	-0.10365549
170	0xbe077851	-0.13229491
171	0xbd8563a2	-0.06513144
172	0xbd482675	-0.0488648
173	0x3c9c8ead	0.019111002
174	0xbcf0a767	-0.029376699
175	0xbc8729d4	-0.016499437
176	0xbd86d797	-0.06584089
177	0x3ce11c06	0.027479183
178	0xbda42807	-0.08015447
179	0x3b203345	0.0024444622
180	0xbe222625	-0.15834863
181	0xbdbf2211	-0.093326695
182	0xbc7a1577	-0.015263907
183	0xbda0aa34	-0.07844964
184	0xbde95cca	-0.11394651
185	0xbe251ad4	-0.16123515
186	0x3cb92869	0.022602277
187	0xbe440eb2	-0.19146231
188	0xbde97bec	-0.11400589
189	0xbd961578	-0.073283136
190	0x3e6dc9db	0.23221533
191	0x3dce4c67	0.10073166
192	0x3cdff632	0.027339075
193	0x3e0d0d75	0.13774665
194	0x3da8ee84	0.08248618
195	0xbd8d6fc6	-0.06906085
196	0x3dc67338	0.09689945
197	0x3d82027b	0.06348129
198	0xbdb34783	-0.08753874
199	0xbe2e891d	-0.17044492
200	0xbcd8c160	-0.026459396
201	0x3cc1283b	0.023578754
202	0xbe0093ac	-0.12556332
203	0xbd7849f7	-0.060617413
204	0x3dc21daa	0.09478314
205	0xbbafb999	-0.005362701
206	0xbd7b4bbf	-0.061351534
207	0xbd444de0	-0.04792583
208	0xbe3ba97d	-0.18326373
209	0xbd9d3a50	-0.07677138
210	0x3ca22d01	0.01979685
211	0xbd4fca32	-0.050729938
212	0x3cd42a6d	0.025899136
213	0xbb811863	-0.0039396747
214	0xbd13e613	-0.036108088
215	0x3caf8165	0.021424005
216	0x3db1fdd3	0.08690991
217	0xbdc021df	-0.093814604
218	0x3d864e57	0.06557911
219	0xbe076ead	-0.13225813
220	0x3c6a015e	0.0142825525
221	0x3e33ce09	0.17559065
222	0xbba6e0bc	-0.0050927084
223	0x3d9b8d34	0.07595292
224	0xbc86bb7a	-0.016446818
225	0xba26c03d	-0.0006361043
226	0x3df5bd85	0.119990386
227	0xbd813439	-0.06308789
228	0x3dfb155a	0.12259932
229	0x3d18a359	0.037265155
230	0xbe1078ec	-0.14108628
231	0x3cd94d4b	0.026526114
232	0xbde1ab6b	-0.110190235
233	0xbda8c557	-0.082407646
234	0xbd528123	-0.051392686
235	0x3d56367f	0.052298065
236	0xbd039c17	-0.03213128
237	0x3d6e361a	0.058157064
238	0x3d7ff2b4	0.06248732
239	0x3b2bc259	0.002620837
240	0x3cce94d3	0.02521745
241	0xbcc959bf	-0.024578927
242	0x3cb74554	0.022371925
243	0xbd0198ed	-0.031639982
244	0x3dc52745	0.09626631
245	0xbd23d900	-0.04000187
246	0x3d6b2f4d	0.057418156
247	0x3d84fb7c	0.06493279
248	0xbd546a6d	-0.051859308
249	0x3c92754d	0.017878199
250	0xbdbc0094	-0.09179798
251	0xbd439ca7	-0.047756817
252	0x3d163bbe	0.03667807
253	0x3dde77c6	0.10862689
254	0xbe06859e	-0.13136908
255	0x3dd199d4	0.102344185

encoder.0.layers.1.kan_layer.spline_weight f4 [1, 16, 72, 8]
0	0x3d9bad81	0.076014526
1	0x3dcd9333	0.10037842
2	0x3e2e296d	0.1700799
3	0xbdc3f68f	-0.09568512
4	0x3ca4c6ed	0.020114386
5	0x3dd4ebf0	0.10396564
6	0x3e98a14f	0.2981057
7	0x3afba532	0.0019199012
8	0x3dbaf3d7	0.0912854
9	0xbe07f72a	-0.1327788
10	0xbd99331b	-0.07480451
11	0xbda70ba0	-0.08156514
12	0x3d9b4c63	0.07582929
13	0x3dd1afe6	0.10238628
14	0x3f08433d	0.532276
15	0xbbbb2803	-0.005711557
16	0xbb8c7152	-0.00428597
17	0x3e07e30c	0.13270205
18	0xba7b8715	-0.0009595019
19	0x3da1bf6a	0.078978375
20	0xbc350525	-0.01104859
21	0xbd93b76f	-0.072127216
22	0xbe3c95ee	-0.18416569
23	0x3a319a05	0.0006774965
24	0xbe504f09	-0.2034265
25	0xbde77fb6	-0.11303656
26	0xbe238116	-0.15967211
27	0x3d484bb9	0.04890034
28	0x3d0645fc	0.032781586
29	0xbd97ae3d	-0.0740628
30	0xbf0777b1	-0.5291701
31	0xbae13924	-0.0017183167
32	0xbc9f0547	-0.019411696
33	0x3dd06fae	0.10177551
34	0xbe2340ee	-0.15942737
35	0x3d08bb22	0.03338159
36	0xbb9b18f8	-0.004733201
37	0xbcc5b206	-0.02413274
38	0xbe4df981	-0.2011471
39	0x39e21802	0.00043123966
40	0xbdf5a4bc	-0.11994311
41	0xbde74cff	-0.11293983
42	0xbe59f830	-0.21286082
43	0xbe8e8adc	-0.27840316
44	0x3c0d8e0f	0.008639826
45	0x3e027aed	0.12742205
46	0xbea66521	-0.3249903
47	0xba2c43dd	-0.0006571392
48	0xbddfedab	-0.109340034
49	0xbcaa5092	-0.020790372
50	0xbdc4f227	-0.096164994
51	0x3d841957	0.06450146
52	0x3e0968ea	0.13418928
53	0x3db6ff17	0.08935373
54	0x3ec68763	0.38775167
55	0x3bd8244c	0.006596124
56	0x3e0e3274	0.13886434
57	0x3e4c485a	0.19949475
58	0xbe166e80	-0.1469059
59	0xbd145312	-0.036212035
60	0xbd19b3e2	-0.037525065
61	0xbe16f321	-0.14741184
62	0xbeac0a25	-0.3360149
63	0x3b969a21	0.0045960103
64	0xbd2ff269	-0.04295579
65	0xbd0c2eb1	-0.034224216
66	0x3dacd25a	0.08438559
67	0x3e467103	0.19379048
68	0xbd5f1ba5	-0.054469723
69	0xbdfb0653	-0.122570656
70	0xbd8e94e4	-0.069619924
71	0xba52d6b1	-0.0008042856
72	0x39e618c0	0.0004388746
73	0xbe3d3b0c	-0.18479556
74	0xbe1c945b	-0.15290968
75	0xbd73054c	-0.059331223
76	0x3e28cbf9	0.1648406
77	0x3e34a830	0.17642283
78	0xbe2fdb26	-0.17173442
79	0xbdb00043	-0.085938
80	0x3baa69ac	0.0052005854
81	0x3e3dba5d	0.18528123
82	0xba164b98	-0.000573331
83	0x3b8d314f	0.0043088566
84	0xbbca277d	-0.006169258
85	0x3bd7ba08	0.006583456
86	0x3abe4911	0.0014517625
87	0xbd5506f1	-0.052008573
88	0xb9e34bc7	-0.00043353272
89	0x3dba8d99	0.09109039
90	0xbce66786	-0.028125536
91	0xbd5a3617	-0.05327424
92	0x3d73dc7c	0.059536442
93	0xbda0d1a0	-0.07852483
94	0xbd816ecb	-0.0631996
95	0x3e1952aa	0.1497294
96	0xbb174eda	-0.002308777
97	0x3e99db6a	0.30050212
98	0xbd17d212	-0.037065573
99	0x3c903a0a	0.0176058
100	0xbc9c25e2	-0.019061033
101	0x3c28e25e	0.010307876
102	0x3be6341f	0.0070252563
103	0xbd15bb0d	-0.03655534
104	0x3b383830	0.0028109662
105	0x3da002bc	0.078130215
106	0xbbe1909a	-0.006883693
107	0xbc7958cb	-0.015218924
108	0x3d3239d6	0.043512188
109	0x3dc5b0c3	0.09652855
110	0x3c97c0a6	0.01852448
111	0xbe9a6911	-0.30158284
112	0xb89bced8	-7.4295036e-05
113	0x3f228251	0.634801
114	0x3e179408	0.14802563
115	0xbd125f4a	-0.035735406
116	0xbd0ebc0a	-0.034847297
117	0xbe24ec4b	-0.16105764
118	0xbd3aaec4	-0.045576826
119	0x3eb88525	0.3603908
120	0xbabdddfd	-0.0014485713
121	0xbea733c7	-0.3265669
122	0x3e80aeed	0.25133458
123	0x3e156d3a	0.14592448
124	0xbdea4dbf	-0.1144061
125	0xbddd2a25	-0.10799054
126	0x3dea47fd	0.11439512
127	0xbc90eb5f	-0.017690359
128	0x3ba9b06f	0.005178503
129	0xbecef4d5	-0.40421167
130	0x3cd67984	0.02618099
131	0xbca8f637	-0.020625217
132	0x3bb51adb	0.005526883
133	0x3d036a50	0.03208381
134	0xbcb0cc9a	-0.021581937
135	0xbe3711e1	-0.17877914
136	0x3b934312	0.0044940794
137	0xbd28547c	-0.041096196
138	0xbcdb284f	-0.02675262
139	0x3a578b83	0.0008222388
140	0xba819716	-0.0009886946
141	0x3c8d5a3d	0.017254943
142	0x3904305b	0.00012606515
143	0x3af712f0	0.0018850248
144	0x3a1b03ab	0.00059133273
145	0x3dd2f475	0.10300533
146	0x3ce10d70	0.027472228
147	0x3be80f5b	0.0070819086
148	0xbac33109	-0.0014891933
149	0x3b89d38a	0.0042061256
150	0x3c87f696	0.016597074
151	0xbd27077e	-0.04077863
152	0x3b4f9496	0.0031674257
153	0xbc93f7ad	-0.018062437
154	0xbd8aec9e	-0.067834124
155	0xbd4eebcc	-0.050517842
156	0x3df51b96	0.11968152
157	0x3d911287	0.07083612
158	0xbe09daf9	-0.13462438
159	0xbcd6e2b8	-0.026231155
160	0xba8d5a33	-0.0010784328
161	0x3d4f6eec	0.050642893
162	0xbe7a5d35	-0.24449618
163	0xbdd4d9c6	-0.103930995
164	0x3e9163d0	0.28396463
165	0x3d32efc7	0.0436857
166	0xbd25ed69	-0.040509615
167	0xbdd2a666	-0.10285644
168	0xb8d89463	-0.00010327322
169	0x3d002c10	0.03129202
170	0xbcdb90b0	-0.02680239
171	0x3b90b4ca	0.004416083
172	0x3bee1c0f	0.0072665284
173	0x3bd58f9d	0.006517364
174	0x3c26ec15	0.010188122
175	0xbd25b133	-0.040452193
176	0xbbdb4887	-0.0066919955
177	0x3b3e6066	0.0029049157
178	0x3cc87da5	0.024473974
179	0xba4abb14	-0.0007733565
180	0xbabe306f	-0.0014510284
181	0x3b11ba91	0.0022236446
182	0xbc2fd20f	-0.010731234
183	0x3d582881	0.052773003
184	0x3ac814e5	0.0015265016
185	0x3d32fdc7	0.043699052
186	0x3c4f2f57	0.012645564
187	0xbc334e55	-0.010943969
188	0x3bd39ba7	0.006457764
189	0xbb14d4cf	-0.0022709852
190	0xbc8348a3	-0.016025847
191	0xbc3172ec	-0.010830622
192	0xbb6e8952	-0.0036397767
193	0xbdaa0cf3	-0.08303251
194	0x3d116021	0.035492066
195	0x3c3ce965	0.011530255
196	0xbcb78a5b	-0.02240484
197	0x3d1fbc3e	0.03899788
198	0xbd3c2e0e	-0.04594236
199	0x3db45e7d	0.08807085
200	0x3ba1b440	0.0049348176
201	0xbe0a9ff8	-0.13537586
202	0xbe2b1bc8	-0.16709816
203	0xbd5328ef	-0.05155271
204	0x3d9d1c12	0.076713696
205	0xbdd5257c	-0.1040754
206	0x3bc1be00	0.0059125423
207	0x3e2b46fc	0.16726297
208	0x3ba1fb14	0.004943261
209	0xbd1b9ea6	-0.037993096
210	0xbd398620	-0.045293927
211	0x3b98bd2c	0.004661223
212	0xb9efb091	-0.00045717185
213	0xbc75609e	-0.014976649
214	0x3c15f78b	0.009153257
215	0xbd2dc809	-0.042427097
216	0xbe9c807e	-0.30566782
217	0xbdded7d5	-0.108810104
218	0xbe4f69fb	-0.20255272
219	0xbcbd9cc4	-0.02314604
220	0x3dcc380b	0.09971627
221	0x3d1f1523	0.038838517
222	0xbe642c5d	-0.22282548
223	0xbe97baca	-0.29634696
224	0x3ef61a78	0.4806707
225	0x3efd8f3d	0.49523345
226	0x3dad5330	0.084631324
227	0x3d873b85	0.06603149
228	0xbd87ee49	-0.06637246
229	0xbdb14fa6	-0.0865777
230	0x3e7f7d7d	0.24950214
231	0x3d607a72	0.054804273
232	0xbd0cf089	-0.03440908
233	0xbda1941e	-0.07889579
234	0x3d79b551	0.060963932
235	0x3b280bf0	0.002564188
236	0x3c6bcb60	0.01439175
237	0xbceeaa56	-0.029133957
238	0xbc3627ba	-0.01111787
239	0x3d81ad64	0.063319
240	0xbdc8ae17	-0.0979883
241	0xbd19d224	-0.03755392
242	0x3c797f8d	0.015228164
243	0xbcdb8cfa	-0.026800621
244	0x3d3736bf	0.044729944
245	0xbaab74e0	-0.0013081096
246	0xbd75e8e0	-0.06003654
247	0x3d33f4af	0.04393452
248	0x3c35563f	0.011067926
249	0x3e98d726	0.29851645
250	0x3e4c2a66	0.19938049
251	0x3d8cddd2	0.06878246
252	0xbda1c6b7	-0.0789923
253	0xbceb814c	-0.028748177
254	0x3e881344	0.26577199
255	0x3efd44f1	0.4946666

encoder.0.layers.1.kan_layer.spline_scaler f4 [1, 16, 72]
0	0xbd55d04b	-0.052200597
1	0xbd438f40	-0.047744036
2	0xbc83c513	-0.016085183
3	0x3dd0248e	0.10163222
4	0xbc2f9dd5	-0.010718782
5	0x3e4404f1	0.1914251
6	0xbe02e117	-0.12781177
7	0x3dca7ceb	0.098871075
8	0x3db79d7d	0.089655854
9	0xbe4aa2b0	-0.19788623
10	0x3a812ce8	0.0009855302
11	0x3c9599f5	0.018261889
12	0xba44f8b1	-0.00075138645
13	0xbcc6297d	-0.024189705
14	0x3d9a2f91	0.07528604
15	0xbe582524	-0.21107918
16	0x3c6774fc	0.014127012
17	0x3be678f6	0.0070334626
18	0xba9f5429	-0.0012155819
19	0xbda6828c	-0.081303686
20	0xbe9b83dd	-0.3037404
21	0xbb04ae34	-0.0020245435
22	0x38d56f4d	0.00010177363
23	0xbab9d3a9	-0.001417746
24	0xbb550061	-0.0032501447
25	0x3ccefe12	0.025267635
26	0xb9e33b73	-0.00043341107
27	0x3debe78f	0.11518776
28	0xbe14a1b8	-0.14514816
29	0xbc741898	-0.014898442
30	0xbc244ccd	-0.010028076
31	0xbe503d31	-0.20335843
32	0x3b55fc6f	0.0032651683
33	0x3e20561a	0.15657845
34	0xbc51de97	-0.012809417
35	0xbdd04fa1	-0.10171438
36	0xbe095e25	-0.1341482
37	0x3dc85d32	0.097834006
38	0xbe3e97e7	-0.18612634
39	0xbe631b76	-0.22178444
40	0x3d8f0964	0.06984213
41	0xbb8a8027	-0.0042267027
42	0x3d9de071	0.077088244
43	0x3d636fb1	0.05552644
44	0x3ce8b0c3	0.028404599
45	0x3bd6bab3	0.006553018
46	0xbcd662d9	-0.026170181
47	0x3da23d07	0.07921796
48	0x3da5a46f	0.08088004
49	0xbcdf74f9	-0.027277457
50	0x3cd9b6c1	0.026576402
51	0xbdc60030	-0.096680045
52	0x3e21d523	0.15803961
53	0x3aba4b59	0.0014213129
54	0xbe137b10	-0.14402413
55	0xbbd0376d	-0.0063542635
56	0xbdb16e30	-0.08663595
57	0x3b81cef2	0.0039614374
58	0x3a7ff815	0.0009764445
59	0x3abb1014	0.001427176
60	0x3c0f59dc	0.0087494515
61	0x3e2032d3	0.15644388
62	0x3987e857	0.00025922313
63	0xbc85353c	-0.016260736
64	0x3af21e9f	0.001847226
65	0x3ccc1a15	0.02491478
66	0x3b9b0f83	0.0047320738
67	0x3e41cce2	0.18925813
68	0x3daa1a1e	0.08305763
69	0xbe6e25f4	-0.23256665
70	0x3aa39d11	0.0012482723
71	0xbc13eb8f	-0.0090283295
72	0xbd91aeb3	-0.07113399
73	0xbe220429	-0.158219
74	0xbde5ccff	-0.112207405
75	0xbda7c9b8	-0.08192772
76	0x3db7dffd	0.08978269
77	0xba0bcc0c	-0.00053328346
78	0xbda4756f	-0.08030211
79	0x3e051247	0.12995254
80	0xbd56a541	-0.052403692
81	0xbde4b0ac	-0.1116651
82	0xbc543ed4	-0.0129544325
83	0x3defc563	0.117075704
84	0xbe485411	-0.19563319
85	0xbd974e0f	-0.07387935
86	0xbde2f59d	-0.11082003
87	0x3e442d15	0.19157822
88	0xbe2de998	-0.1698364
89	0xbcdbf20e	-0.02684882
90	0xbe8766ea	-0.26445705
91	0xbe44a437	-0.19203268
92	0xbe334463	-0.17506556
93	0x3d4fe530	0.05075568
94	0x3e344093	0.17602758
95	0x3ab7b98d	0.001401709
96	0xbd51cca2	-0.051220544
97	0xbdff8093	-0.124756955
98	0x3ddfb794	0.109236866
99	0x3e139004	0.14410406
100	0xbc949787	-0.01813866
101	0xbe31ec9f	-0.1737542
102	0xbdbe35e3	-0.09287622
103	0xbd4b3a4c	-0.049616143
104	0xb9c7835c	-0.00038054108
105	0x3d92ebb1	0.07173861
106	0xbd9521bb	-0.07281824
107	0x3e0eb5f0	0.13936591
108	0x3e2f6a43	0.1713038
109	0xbe6f3ec0	-0.23363781
110	0x3dff0c85	0.1245356
111	0xbe70ef38	-0.23528755
112	0x3e9963fa	0.2995909
113	0x3dd259c9	0.102710314
114	0x3dcdac36	0.10042612
115	0x3da55ce0	0.08074355
116	0xb9ad4929	-0.0003305164
117	0x3d1ad0d7	0.03779682
118	0xbd811364	-0.063025266
119	0x3d97c096	0.0740978
120	0x3d103199	0.03520355
121	0xbd442382	-0.047885425
122	0xbdb8073e	-0.08985756
123	0x3bc94fb3	0.006143534
124	0x3dccd671	0.10001839
125	0x3c27c9fb	0.010241027
126	0xb9f62dfc	-0.00046955037
127	0xbdd7d795	-0.10539166
128	0xbc785664	-0.015157316
129	0x3b3f105b	0.0029154036
130	0x3c2a6d61	0.0104020545
131	0xbb872f10	-0.0041254833
132	0x398fa041	0.00027394484
133	0xb915e737	-0.00014295882
134	0xbc46df38	-0.01213818
135	0xbe17190e	-0.14755651
136	0xbcdcec53	-0.026968157
137	0xb9937fdf	-0.00028133296
138	0xbe20d7b3	-0.15707283
139	0xbe69079c	-0.22756809
140	0xbd8f708b	-0.07003888
141	0x3de2a3c3	0.11066391
142	0x3e83c125	0.25733295
143	0xbbaeb4b3	-0.0053315996
144	0xbda1dc82	-0.07903387
145	0xbdaef089	-0.08541972
146	0xbbbe268e	-0.005802936
147	0xbbff53d5	-0.007791976
148	0x3d7c6c56	0.061626755
149	0x3a087731	0.0005205749
150	0xbb1f36b5	-0.0024294083
151	0x3a99d8aa	0.0011737545
152	0xbb7c36e3	-0.0038484863
153	0xbb85155a	-0.004061383
154	0x3e06d3e3	0.13166766
155	0x3aef0d47	0.001823821
156	0xbb16f64b	-0.0023034986
157	0xbb98c6dd	-0.004662378
158	0xbd84cf25	-0.06484822
159	0xbb453dc8	-0.003009664
160	0x3d3420d5	0.043976624
161	0x3a9645a1	0.0011464843
162	0x39e51b99	0.00043698846
163	0x3e7fc77c	0.24978441
164	0xbe085793	-0.13314657
165	0xb9f5d945	-0.0004689192
166	0xbe5a8440	-0.21339512
167	0x38d7cc0c	0.000102900056
168	0xbaa7c864	-0.001280081
169	0x3a3ee524	0.00072820694
170	0x3ab10f5f	0.0013508609
171	0x3d62925a	0.055315353
172	0xbe61f13a	-0.22064677
173	0x3b46749e	0.0030281912
174	0x3a67b76a	0.00088392815
175	0x3b12da9a	0.0022408129
176	0xb9834fb3	-0.00025045648
177	0x3d5409e8	0.05176726
178	0x3d869c78	0.06572813
179	0xba8fb683	-0.0010964427
180	0xbe8ef48a	-0.27920943
181	0xbaa22ac1	-0.0012372361
182	0xbb72a89d	-0.003702677
183	0xbe84511c	-0.25843132
184	0xbe302977	-0.17203318
185	0xbbe560d5	-0.0070000687
186	0xbdf8021e	-0.12109779
187	0x3e0499b8	0.12949264
188	0x3ab6e1a2	0.0013952742
189	0x3a6bc267	0.0008993507
190	0xbd276c58	-0.04087481
191	0xbaa7d225	-0.0012803717
192	0xb9e6c521	-0.0004401589
193	0xbb19e890	-0.0023484565
194	0x3e2f9f16	0.1715053
195	0x3afd3982	0.0019319507
196	0x36a708fe	4.9780347e-06
197	0xbd857f53	-0.06518426
198	0xba0a3a84	-0.0005273002
199	0xbb0f3339	-0.00218506
200	0xbb68f3de	-0.0035545747
201	0x3aa03d49	0.0012225296
202	0xb9d8b760	-0.00041335355
203	0xbb167427	-0.0022957416
204	0xbabc0197	-0.0014343736
205	0xb8d22f60	-0.000100224046
206	0xbaaa0875	-0.0012972491
207	0xba8df836	-0.0010831419
208	0xbbd2b415	-0.006430159
209	0x3c5d3441	0.013501228
210	0x3df748f0	0.120744586
211	0x389524ad	7.111705e-05
212	0x3b981955	0.0046416917
213	0xbb8ae75d	-0.0042390064
214	0x3afb9900	0.0019195378
215	0xbbc2688d	-0.0059328736
216	0x3e1a4410	0.15065026
217	0x3c878622	0.016543452
218	0xbe221a5a	-0.15830365
219	0xbe0c9e99	-0.13732375
220	0x3e1762a8	0.14783728
221	0x3d849eab	0.06475576
222	0x3d81a70a	0.06330688
223	0x3e56180c	0.2090761
224	0xbcf263ba	-0.029588569
225	0xbc8171dd	-0.015801365
226	0x3da85584	0.08219436
227	0x3b019c7c	0.001977711
228	0xbcadb4b3	-0.021204328
229	0xbcd92ad5	-0.026509682
230	0xb83335c8	-4.2727013e-05
231	0x3c781e93	0.015144008
232	0xbae57df4	-0.001750885
233	0xb926793d	-0.00015876158
234	0x3e26ffc2	0.16308501
235	0x3dd0b038	0.10189861
236	0xb8b29c43	-8.5168074e-05
237	0x3991305d	0.0002769259
238	0x3a7fc1f6	0.00097563805
239	0xbe36d91e	-0.17856261
240	0xbe488159	-0.19580592
241	0xbd845493	-0.06461444
242	0xbbd5b3e0	-0.006521687
243	0xbdf73bbd	-0.12071941
244	0x3ad09b92	0.0015915504
245	0xbdd204bd	-0.1025481
246	0xb964e148	-0.00021827698
247	0xbe1532ef	-0.14570211
248	0xbb7c9d27	-0.0038545819
249	0x3dc649c1	0.09682036
250	0xbd9133ce	-0.07089959
251	0xbcb4729e	-0.02202731
252	0x3db854c5	0.090005435
253	0xbe069a16	-0.13144717
254	0x3c3b4c9a	0.011431837
255	0xbe1d9a04	-0.15390784

encoder.0.layers.1.kan_layer.grid f4 [1, 72, 12]
0	0xc00ccccd	-2.2
1	0xbfe66666	-1.8
2	0xbfb33333	-1.4
3	0xbf800000	-1.0
4	0xbf19999a	-0.6
5	0xbe4ccccc	-0.19999999
6	0x3e4cccd0	0.20000005
7	0x3f19999a	0.6
8	0x3f800000	1.0
9	0x3fb33334	1.4000001
10	0x3fe66666	1.8
11	0x400ccccd	2.2
12	0xc00ccccd	-2.2
13	0xbfe66666	-1.8
14	0xbfb33333	-1.4
15	0xbf800000	-1.0
16	0xbf19999a	-0.6
17	0xbe4ccccc	-0.19999999
18	0x3e4cccd0	0.20000005
19	0x3f19999a	0.6
20	0x3f800000	1.0
21	0x3fb33334	1.4000001
22	0x3fe66666	1.8
23	0x400ccccd	2.2
24	0xc00ccccd	-2.2
25	0xbfe66666	-1.8
26	0xbfb33333	-1.4
27	0xbf800000	-1.0
28	0xbf19999a	-0.6
29	0xbe4ccccc	-0.19999999
30	0x3e4cccd0	0.20000005
31	0x3f19999a	0.6
32	0x3f800000	1.0
33	0x3fb33334	1.4000001
34	0x3fe66666	1.8
35	0x400ccccd	2.2
36	0xc00ccccd	-2.2
37	0xbfe66666	-1.8
38	0xbfb33333	-1.4
39	0xbf800000	-1.0
40	0xbf19999a	-0.6
41	0xbe4ccccc	-0.19999999
42	0x3e4cccd0	0.20000005
43	0x3f19999a	0.6
44	0x3f800000	1.0
45	0x3fb33334	1.4000001
46	0x3fe66666	1.8
47	0x400ccccd	2.2
48	0xc00ccccd	-2.2
49	0xbfe66666	-1.8
50	0xbfb33333	-1.4
51	0xbf800000	-1.0
52	0xbf19999a	-0.6
53	0xbe4ccccc	-0.19999999
54	0x3e4cccd0	0.20000005
55	0x3f19999a	0.6
56	0x3f800000	1.0
57	0x3fb33334	1.4000001
58	0x3fe66666	1.8
59	0x400ccccd	2.2
60	0xc00ccccd	-2.2
61	0xbfe66666	-1.8
62	0xbfb33333	-1.4
63	0xbf800000	-1.0
64	0xbf19999a	-0.6
65	0xbe4ccccc	-0.19999999
66	0x3e4cccd0	0.20000005
67	0x3f19999a	0.6
68	0x3f800000	1.0
69	0x3fb33334	1.4000001
70	0x3fe66666	1.8
71	0x400ccccd	2.2
72	0xc00ccccd	-2.2
73	0xbfe66666	-1.8
74	0xbfb33333	-1.4
75	0xbf800000	-1.0
76	0xbf19999a	-0.6
77	0xbe4ccccc	-0.19999999
78	0x3e4cccd0	0.20000005
79	0x3f19999a	0.6
80	0x3f800000	1.0
81	0x3fb33334	1.4000001
82	0x3fe66666	1.8
83	0x400ccccd	2.2
84	0xc00ccccd	-2.2
85	0xbfe66666	-1.8
86	0xbfb33333	-1.4
87	0xbf800000	-1.0
88	0xbf19999a	-0.6
89	0xbe4ccccc	-0.19999999
90	0x3e4cccd0	0.20000005
91	0x3f19999a	0.6
92	0x3f800000	1.0
93	0x3fb33334	1.4000001
94	0x3fe66666	1.8
95	0x400ccccd	2.2
96	0xc00ccccd	-2.2
97	0xbfe66666	-1.8
98	0xbfb33333	-1.4
99	0xbf800000	-1.0
100	0xbf19999a	-0.6
101	0xbe4ccccc	-0.19999999
102	0x3e4cccd0	0.20000005
103	0x3f19999a	0.6
104	0x3f800000	1.0
105	0x3fb33334	1.4000001
106	0x3fe66666	1.8
107	0x400ccccd	2.2
108	0xc00ccccd	-2.2
109	0xbfe66666	-1.8
110	0xbfb33333	-1.4
111	0xbf800000	-1.0
112	0xbf19999a	-0.6
113	0xbe4ccccc	-0.19999999
114	0x3e4cccd0	0.20000005
115	0x3f19999a	0.6
116	0x3f800000	1.0
117	0x3fb33334	1.4000001
118	0x3fe66666	1.8
119	0x400ccccd	2.2
120	0xc00ccccd	-2.2
121	0xbfe66666	-1.8
122	0xbfb33333	-1.4
123	0xbf800000	-1.0
124	0xbf19999a	-0.6
125	0xbe4ccccc	-0.19999999
126	0x3e4cccd0	0.20000005
127	0x3f19999a	0.6
128	0x3f800000	1.0
129	0x3fb33334	1.4000001
130	0x3fe66666	1.8
131	0x400ccccd	2.2
132	0xc00ccccd	-2.2
133	0xbfe66666	-1.8
134	0xbfb33333	-1.4
135	0xbf800000	-1.0
136	0xbf19999a	-0.6
137	0xbe4ccccc	-0.19999999
138	0x3e4cccd0	0.20000005
139	0x3f19999a	0.6
140	0x3f800000	1.0
141	0x3fb33334	1.4000001
142	0x3fe66666	1.8
143	0x400ccccd	2.2
144	0xc00ccccd	-2.2
145	0xbfe66666	-1.8
146	0xbfb33333	-1.4
147	0xbf800000	-1.0
148	0xbf19999a	-0.6
149	0xbe4ccccc	-0.19999999
150	0x3e4cccd0	0.20000005
151	0x3f19999a	0.6
152	0x3f800000	1.0
153	0x3fb33334	1.4000001
154	0x3fe66666	1.8
155	0x400ccccd	2.2
156	0xc00ccccd	-2.2
157	0xbfe66666	-1.8
158	0xbfb33333	-1.4
159	0xbf800000	-1.0
160	0xbf19999a	-0.6
161	0xbe4ccccc	-0.19999999
162	0x3e4cccd0	0.20000005
163	0x3f19999a	0.6
164	0x3f800000	1.0
165	0x3fb33334	1.4000001
166	0x3fe66666	1.8
167	0x400ccccd	2.2
168	0xc00ccccd	-2.2
169	0xbfe66666	-1.8
170	0xbfb33333	-1.4
171	0xbf800000	-1.0
172	0xbf19999a	-0.6
173	0xbe4ccccc	-0.19999999
174	0x3e4cccd0	0.20000005
175	0x3f19999a	0.6
176	0x3f800000	1.0
177	0x3fb33334	1.4000001
178	0x3fe66666	1.8
179	0x400ccccd	2.2
180	0xc00ccccd	-2.2
181	0xbfe66666	-1.8
182	0xbfb33333	-1.4
183	0xbf800000	-1.0
184	0xbf19999a	-0.6
185	0xbe4ccccc	-0.19999999
186	0x3e4cccd0	0.20000005
187	0x3f19999a	0.6
188	0x3f800000	1.0
189	0x3fb33334	1.4000001
190	0x3fe66666	1.8
191	0x400ccccd	2.2
192	0xc00ccccd	-2.2
193	0xbfe66666	-1.8
194	0xbfb33333	-1.4
195	0xbf800000	-1.0
196	0xbf19999a	-0.6
197	0xbe4ccccc	-0.19999999
198	0x3e4cccd0	0.20000005
199	0x3f19999a	0.6
200	0x3f800000	1.0
201	0x3fb33334	1.4000001
202	0x3fe66666	1.8
203	0x400ccccd	2.2
204	0xc00ccccd	-2.2
205	0xbfe66666	-1.8
206	0xbfb33333	-1.4
207	0xbf800000	-1.0
208	0xbf19999a	-0.6
209	0xbe4ccccc	-0.19999999
210	0x3e4cccd0	0.20000005
211	0x3f19999a	0.6
212	0x3f800000	1.0
213	0x3fb33334	1.4000001
214	0x3fe66666	1.8
215	0x400ccccd	2.2
216	0xc00ccccd	-2.2
217	0xbfe66666	-1.8
218	0xbfb33333	-1.4
219	0xbf800000	-1.0
220	0xbf19999a	-0.6
221	0xbe4ccccc	-0.19999999
222	0x3e4cccd0	0.20000005
223	0x3f19999a	0.6
224	0x3f800000	1.0
225	0x3fb33334	1.4000001
226	0x3fe66666	1.8
227	0x400ccccd	2.2
228	0xc00ccccd	-2.2
229	0xbfe66666	-1.8
230	0xbfb33333	-1.4
231	0xbf800000	-1.0
232	0xbf19999a	-0.6
233	0xbe4ccccc	-0.19999999
234	0x3e4cccd0	0.20000005
235	0x3f19999a	0.6
236	0x3f800000	1.0
237	0x3fb33334	1.4000001
238	0x3fe66666	1.8
239	0x400ccccd	2.2
240	0xc00ccccd	-2.2
241	0xbfe66666	-1.8
242	0xbfb33333	-1.4
243	0xbf800000	-1.0
244	0xbf19999a	-0.6
245	0xbe4ccccc	-0.19999999
246	0x3e4cccd0	0.20000005
247	0x3f19999a	0.6
248	0x3f800000	1.0
249	0x3fb33334	1.4000001
250	0x3fe66666	1.8
251	0x400ccccd	2.2
252	0xc00ccccd	-2.2
253	0xbfe66666	-1.8
254	0xbfb33333	-1.4
255	0xbf800000	-1.0

encoder.0.layers.2.kan_layer.base_weight f4 [1, 32, 144]
0	0xbc6e6e28	-0.0145526305
1	0x3d11b610	0.03557402
2	0x3db8e521	0.09028078
3	0xbd82ef33	-0.0639328
4	0x3e02618b	0.12732522
5	0xbdb76339	-0.08954472
6	0x3de8346c	0.11338124
7	0xbe27b8a6	-0.16379032
8	0xbd02dbae	-0.031947784
9	0x3ca74fff	0.020423887
10	0x3bb0ad57	0.0053917575
11	0x3da2e029	0.079529114
12	0x3d6c2bce	0.057658963
13	0xbcc42cbe	-0.023947116
14	0x3d3092f2	0.043108888
15	0xbdb4897d	-0.08815286
16	0x3d0b4ee6	0.03401079
17	0x3daf4c77	0.085595064
18	0x3cba550f	0.022745637
19	0xbdf927b3	-0.12165775
20	0x3d252134	0.040314868
21	0xbd73a7bb	-0.059486132
22	0x3d87b19d	0.06625674
23	0xbc467e02	-0.012115004
24	0x3c957bbf	0.018247483
25	0xbe202535	-0.15639193
26	0xbcaa3a32	-0.020779703
27	0xbd808988	-0.06276232
28	0xbd3bf1b3	-0.0458848
29	0x3d8dd669	0.06925661
30	0x3e299565	0.16560896
31	0xbd408e37	-0.047010627
32	0x3da39219	0.0798685
33	0xbd602019	-0.05471811
34	0xbd209e8f	-0.039213713
35	0xbe22ce41	-0.15898992
36	0xbd08e2d8	-0.03341946
37	0x3ce783a1	0.028261008
38	0xbd7ceb01	-0.061747555
39	0x3d27bb56	0.04095014
40	0xbd8faa1b	-0.07014867
41	0xbb8e4b4f	-0.0043424736
42	0xbcdcedeb	-0.026968917
43	0xbd0da361	-0.03457964
44	0x3de6a6dc	0.11262295
45	0x3d214096	0.039368235
46	0xbe2929a3	-0.1651979
47	0xbd17f81e	-0.037101857
48	0x3dc318c8	0.09526211
49	0xbe5b939c	-0.21443027
50	0x3b739f9c	0.0037173992
51	0x3a9a6a9b	0.0011781038
52	0xbd7f7813	-0.06237037
53	0xbc54f2bc	-0.0129973255
54	0x3d87bd01	0.066278465
55	0xbdfef57b	-0.124491654
56	0x3ca20291	0.019776614
57	0xbd9fa555	-0.077952065
58	0x3e1c1909	0.15243925
59	0xbd50af93	-0.05094869
60	0x3e472a8e	0.19449827
61	0xbdaa1925	-0.08305577
62	0xbd273c1b	-0.040828805
63	0xbd877138	-0.06613392
64	0xbc06ea09	-0.008234509
65	0xba7202d9	-0.0009231992
66	0xbde2e689	-0.11079127
67	0x3d1ff6b2	0.039053626
68	0x3bb8cff8	0.005640026
69	0xbd528af5	-0.05140205
70	0x3d25f4cc	0.04051666
71	0x3d0187f0	0.03162378
72	0x3d4b101b	0.049575906
73	0xbe0303b4	-0.12794381
74	0xbc978e92	-0.0185006
75	0xbe091d6e	-0.13390133
76	0x3de221b0	0.11041582
77	0x3e05f163	0.13080363
78	0xb8afee77	-8.389068e-05
79	0xbe76f61b	-0.2411732
80	0x3da86f09	0.08224303
81	0xbd232ef1	-0.03983969
82	0xbca78249	-0.020447867
83	0x3c2c98dd	0.010534492
84	0x3e68cc88	0.22734272
85	0xbdd20bcd	-0.10256157
86	0x3dcc0bb7	0.09963172
87	0xbe03cd33	-0.12871246
88	0x3e1bf85d	0.15231462
89	0xbde5f22a	-0.1122783
90	0xbce5c155	-0.02804629
91	0xbc8d8e49	-0.01727976
92	0x3bae622c	0.0053217616
93	0x3e978352	0.29592377
94	0xbe4ee42d	-0.2020423
95	0xbe6eb7ea	-0.23312345
96	0xbdd2fbf1	-0.1030196
97	0x3d4a61bd	0.049409617
98	0x3da79f51	0.08184684
99	0x3d1358bb	0.03597329
100	0xbd2b0e24	-0.041761532
101	0xbd10a973	-0.03531785
102	0xbd9071cd	-0.07052956
103	0x3ce96b75	0.028493622
104	0xbd94a04a	-0.07257135
105	0x3c964f6b	0.018348416
106	0xbe1617a2	-0.14657453
107	0xbd8d176f	-0.06889235
108	0x3c1719c5	0.0092224525
109	0x3d856ebf	0.06515264
110	0x3d569202	0.052385338
111	0x3e225c05	0.15855415
112	0xba47dc8a	-0.00076241104
113	0xbe541b65	-0.20713575
114	0xba0cc59b	-0.00053700217
115	0x3e0bcb94	0.13651878
116	0xbcfdc50e	-0.030977752
117	0x3d9c97df	0.076461546
118	0x3d08d91c	0.033410177
119	0xbd9436f6	-0.072370455
120	0x3da9da5f	0.08293604
121	0xbe211a77	-0.15732752
122	0x3d1e8c20	0.038707852
123	0xbdf765e8	-0.12079984
124	0x3db6fd7d	0.08935068
125	0x3dffd655	0.124920525
126	0xbd4e02ff	-0.050295826
127	0xbd03b951	-0.032159153
128	0x3cfdc2f0	0.030976743
129	0xbd59ae58	-0.053144783
130	0x3cfc5033	0.03079996
131	0x3dc61e1b	0.09673711
132	0xbd8b9d6c	-0.06817135
133	0xbd1ee8be	-0.03879618
134	0x3cd17c84	0.025572069
135	0x3d13284f	0.035927113
136	0xbd41ebdf	-0.047344085
137	0xbccae6d1	-0.024768265
138	0x3dc03a97	0.09386175
139	0xba1ad2ad	-0.0005906027
140	0x3e500aec	0.20316666
141	0x3dc9b663	0.09849241
142	0xbd6f50e4	-0.058426753
143	0xbd9a856d	-0.0754498
144	0xb9769079	-0.00023514208
145	0xbc101d45	-0.008796041
146	0x3cc53c89	0.024076717
147	0xbd5da803	-0.054115307
148	0xbcd290de	-0.025703844
149	0xbdee7b2f	-0.11644589
150	0xbc151716	-0.009099742
151	0xbd12c80c	-0.03583531
152	0xbc689547	-0.014195747
153	0xba800b85	-0.0009769058
154	0x3d1c5644	0.038168207
155	0x3d819840	0.063278675
156	0x3ba3e966	0.0050021885
157	0x3c2ad3ce	0.010426475
158	0xbc54621e	-0.012962846
159	0xbd14c610	-0.0363217
160	0x3d0105e5	0.031499762
161	0x3e1320ef	0.14368032
162	0x3da08f05	0.07839779
163	0x3dd2cb25	0.10292653
164	0x3d0a8fd3	0.033828568
165	0xbc74ced4	-0.01494189
166	0xbc906b78	-0.01762937
167	0x3c3bbfa1	0.011459262
168	0x3db706ba	0.0893683
169	0xbd964167	-0.07336693
170	0x3de2cc87	0.11074167
171	0xbc8154c0	-0.015787482
172	0xbdfbeb92	-0.12300791
173	0x3ce8b8c1	0.02840841
174	0x3c104387	0.008805162
175	0x3c4d5186	0.012531644
176	0xbbe2d51d	-0.0069223777
177	0x3c4def2d	0.012569231
178	0x3de8ac43	0.11360981
179	0xbd9b8b92	-0.0759498
180	0xbd801abb	-0.062550984
181	0xbc9eff08	-0.019408718
182	0x3d1bd39e	0.03804361
183	0x3c00fd1f	0.007872849
184	0xbd935207	-0.0719338
185	0x3c9f2bd2	0.019430075
186	0x3c774458	0.015091978
187	0x3d5e35a4	0.054250374
188	0xbd193d20	-0.03741181
189	0xbcae34c9	-0.021265404
190	0xbb3b15dc	-0.0028546965
191	0x3cc55449	0.024088042
192	0xbd5fab1e	-0.05460655
193	0x3921af25	0.00015419403
194	0x3c82845e	0.015932258
195	0x3db5bff4	0.08874503
196	0x3dbc28c1	0.09187461
197	0xbe1652ec	-0.1468007
198	0x3ccc92ac	0.024972282
199	0x3e59933a	0.21247569
200	0xbd02d2b9	-0.031939242
201	0x3cc47814	0.023983039
202	0x3c4f4c09	0.012652406
203	0x3d1023b0	0.035190284
204	0xbd7e6196	-0.062104784
205	0xbd960e79	-0.07326979
206	0x3c3ed716	0.01164796
207	0x3dda5b17	0.10661905
208	0x3e42fd86	0.19042024
209	0x3d55ac41	0.052166227
210	0x3d8861e8	0.06659299
211	0x3d97bcc5	0.07409052
212	0x3e196c24	0.14982659
213	0x3b286cd3	0.002569963
214	0x3e0251d4	0.12726527
215	0xbd1fae86	-0.038984798
216	0x3d51c1cd	0.051210213
217	0x3e023c1e	0.12718245
218	0xbcdabc44	-0.0267011
219	0xbca09b02	-0.019605163
220	0xbc6b4997	-0.014360807
221	0x3d83e30c	0.0643979
222	0x3d50c0bf	0.050965067
223	0xbdafa0f1	-0.08575619
224	0x3d2dd634	0.04244061
225	0x3d8c75e3	0.068584226
226	0xbba126fa	-0.0049179764
227	0x3e163a4a	0.14670673
228	0xbde9488a	-0.11390789
229	0x3e586ca5	0.21135195
230	0xbdc06966	-0.09395103
231	0xbd9c16ef	-0.07621562
232	0x3e4844c0	0.19557476
233	0xbd0755fa	-0.033040978
234	0xbd9bf025	-0.07614163
235	0xbcbb85c8	-0.02289094
236	0xbcbf58e9	-0.023357825
237	0xbe0715f8	-0.13191974
238	0xbdb043d6	-0.08606689
239	0xbe6cd4f7	-0.23128115
240	0x3e08655d	0.13319917
241	0x3c012c1d	0.007884053
242	0xbd9076b7	-0.07053893
243	0x3d561f70	0.052276075
244	0xbce0dc47	-0.027448786
245	0x3d34e383	0.044162285
246	0x39947549	0.00028316144
247	0xbd262e86	-0.040571712
248	0x3bf7de7d	0.0075643645
249	0x3c9b31cf	0.018944649
250	0xbcbb8752	-0.022891674
251	0x3dbaf1a8	0.091281235
252	0xbc9f3bb9	-0.019437658
253	0x3c40fa22	0.011778386
254	0xbc5fc9c7	-0.013658947
255	0xbd6c7ebc	-0.05773805
